Model Capstone/model.tflite (tflite, 49488 bytes, 8 tensors)

sequential/dense_1/BiasAdd/ReadVariableOp f4 [64]
00000000: 7581 a4bd 0bc4 273d eaf0 a0bd 3a0b d8bd
00000010: 2938 c4bd cd91 b6bd 7264 a9bd 10f1 383e
00000020: a7ca 15be 0aee 7fbd cc88 dbbd 4af1 a8bd
00000030: c7c9 12bd 25f5 a83d f9be 1abd 2e2b 97bd
00000040: 716a 91bc 6962 c9bc e3b7 6b3c 32a6 51bd
00000050: 06e5 f6bc f0f1 dcbc 7305 99bc 6c14 fbbc
00000060: 65c5 acbd 92f5 8fbd dc6e 6f3d 4956 70bd
00000070: 0071 d7bc 9aa3 abbc d723 69bd 9c3e f1bd
00000080: aec7 aa3d 9ef5 92bd 32f9 cf3c 55e5 393b
00000090: 4c7e dfba b16e 54bd 0229 a9bd fcc1 8bbd
000000a0: 7d17 0f3d 6c17 b6bd d577 7e3d a4a1 1fbc
000000b0: 17a7 5abb 131b ccbd b4d4 8dbd e946 b5bd
000000c0: df90 cbbd 1823 a5bd 1aac 7abc 2c82 0dbe
000000d0: f541 61bd cee9 45bd af08 8ebd e78e abbd
000000e0: 5281 a3bd ff0b 7abd 8e9c 4dbd 6442 f63c
000000f0: 1d25 14bd 18e7 8cbd 574e 243d 1b9b 86bd
-0.080325045 0.040958446 -0.07858451 -0.10549016 -0.09581024 -0.08914528 -0.082711115 0.18060708
-0.14628087 -0.06248287 -0.10719451 -0.08249147 -0.03583696 0.082498826 -0.037779782 -0.07381283
-0.01775095 -0.024583058 0.014387104 -0.051183887 -0.030138504 -0.026970834 -0.018679356 -0.030649386
-0.084360875 -0.07029261 0.058455333 -0.058676038 -0.026299 -0.020952035 -0.056918945 -0.1177952
0.08338867 -0.07175754 0.02538738 0.0028365452 -0.0017051189 -0.051863376 -0.08259775 -0.06824109
0.03493451 -0.08891186 0.062126 -0.009743128 -0.0033363753 -0.099661015 -0.069253355 -0.08851416
-0.09939741 -0.08063334 -0.015299821 -0.13819188 -0.054994542 -0.048318677 -0.0693525 -0.08376866
-0.0798365 -0.061046597 -0.05019813 0.030060954 -0.036168206 -0.06880015 0.040113773 -0.06572553

sequential/dense_2/BiasAdd/ReadVariableOp f4 [32]
00000000: 0a2e febd e3d3 15be 325f 72be f3fa 1abe
00000010: 5537 e73d 9026 f2bd 83b9 5cbd c7ae acbd
00000020: 02cb f83d ffa5 29be 669e 97bd 483a 31be
00000030: eb26 57be df47 d0bd 957e 12be de54 a6bd
00000040: 444d 13be f0ca 15be d7b4 97bd 4deb 713d
00000050: cb2f fdbd bd78 1dbe 2081 03be 28de b1bd
00000060: d389 9a3d 524c 15be e691 91bd c8a2 67bd
00000070: c844 f23d bc95 5abe 4af5 833e b6f9 d93d
-0.12411125 -0.1463161 -0.23669127 -0.15134792 0.112898506 -0.118237615 -0.053887855 -0.08431774
0.12148096 -0.16567229 -0.07403259 -0.17307389 -0.2101094 -0.10169958 -0.143061 -0.08121656
-0.14384943 -0.14628196 -0.07407539 0.05906229 -0.123626314 -0.15378089 -0.12842226 -0.08684951
0.07545819 -0.14579895 -0.07107906 -0.056551725 0.11829525 -0.21346182 0.25773078 0.10643332

sequential/dense_3/BiasAdd/ReadVariableOp f4 [4]
00000000: b586 3f3d 7ed6 b83d 5eb7 083e 5946 a4be
0.046759326 0.09025286 0.13351199 -0.3208492

sequential/dense/BiasAdd/ReadVariableOp f4 [128]
00000000: b1f4 c3bd 5b66 e8bc 0000 0000 2572 e33b
00000010: 3adc 41bd 9c8b 1cbe 973e bdbc 87ad fcbc
00000020: 2d19 00bd 9c12 cdbb ae49 7abb c920 87bb
00000030: b9b2 a7bd a815 6dbd f335 9dbd 5ed5 cabd
00000040: 0000 0000 7a64 90bd 0000 0000 0000 0000
00000050: 58d1 86bc 576a dcbc 0000 0000 8d44 0ebc
00000060: edb5 e53b 65dd f5bd 2c6c 32bd 5755 81b9
00000070: 3f76 dabd df81 5abd 431e 84bd 22c9 61bd
00000080: d935 63bd d0ee 353c 46d7 10bd 4c42 84bb
00000090: a18a 143c cead ebbc 0d58 9cbc 9095 5bbd
000000a0: 843c 16bd 5e7a 4bbb 0259 b639 f097 5d3c
000000b0: 12aa ac3c cd2a 7fb6 1093 7bbd 05e4 02bd
000000c0: 6009 febd 1c36 9dbd 1f25 2cbc 0000 0000
000000d0: 27d2 bebc 76b4 a0bc 760a 9abd 0000 0000
000000e0: 74ab 01bd 6dfc 80bd 93b0 8fbd 7255 a8bc
000000f0: 377e 87bc ec49 b83c e4a0 6bbd be0d 50bd
00000100: 2491 b1bc 121a 74bc e6c1 84bd a804 2fbd
00000110: 2a91 55bd 3742 e4bd 45bf b0bd b184 42bc
00000120: b980 b3bc 9628 ebbd 7797 c4bd 0000 0000
00000130: dddb fbbc 72ea f7bd 5a98 86bc f11e 99bc
00000140: b776 403b 65c7 9ebb 6014 a6bd 189e 233d
00000150: 7c66 eebb cd37 12bc 153b 84bd c0ba 0d3d
00000160: 0000 0000 9f74 aabd 0fe2 a8bd b5ce 5fbd
00000170: dc61 a9bc 0b68 3bbd 632c 2abd 0000 0000
00000180: 4be5 84bd 1fff 85bd 2d1b 8cbd 0000 0000
00000190: 970f bcbd e33c 00bd cac7 5736 d2f5 40be
000001a0: 27ff 80bd 3c51 23bd 502f 6f3c 3158 f7bd
000001b0: 1322 2c3d b3e0 453d ee2a 8abd 91fe d6bd
000001c0: 0000 0000 3f96 1dbd ccd5 c4bd 0000 0000
000001d0: 59de 463c 0000 0000 d582 d6bd b72f ad39
000001e0: d59a 06ba 4191 d2bc b12b 4ebd b124 b5bc
000001f0: 3ef6 8cbd ce3c 48bd ab79 d3bd 4ad9 813b
-0.095681556 -0.02836912 0.0 0.0069410973 -0.047329165 -0.15287632 -0.023101134 -0.030844463
-0.03127401 -0.006258322 -0.003819089 -0.0041237813 -0.081883855 -0.05788198 -0.076763056 -0.09903978
0.0 -0.070504144 0.0 0.0 -0.016457245 -0.026906176 0.0 -0.008683336
0.0070102126 -0.12005118 -0.043560192 -0.0002466838 -0.10667085 -0.05334651 -0.064510845 -0.055123456
-0.055471275 0.011104301 -0.03536155 -0.0040362235 0.009066255 -0.0287694 -0.019084955 -0.05360943
-0.036678806 -0.0031048278 0.0003478006 0.013524994 0.02107719 -3.8022874e-06 -0.061419547 -0.031955738
-0.12404132 -0.07676336 -0.010506897 0.0 -0.023293568 -0.0196173 -0.075215265 0.0
-0.03165765 -0.062981464 -0.07016101 -0.020548556 -0.016539676 0.022496186 -0.057526484 -0.050794356
-0.021675654 -0.014898794 -0.06482296 -0.04272905 -0.052140392 -0.11145442 -0.08630232 -0.011872456
-0.021911966 -0.114823505 -0.09599202 0.0 -0.030744487 -0.12105264 -0.016430069 -0.018691512
0.0029367635 -0.004845547 -0.08109355 0.03994569 -0.0072754007 -0.008924437 -0.064565815 0.034601927
0.0 -0.08323025 -0.08246242 -0.05464049 -0.020676546 -0.04575352 -0.041546237 0.0
-0.06489047 -0.06542801 -0.06841121 0.0 -0.09182661 -0.031308066 3.215379e-06 -0.18843773
-0.062986664 -0.039872393 0.0145986825 -0.12077368 0.042024683 0.048309993 -0.067464694 -0.104977734
0.0 -0.038473364 -0.09611091 0.0 0.012137973 0.0 -0.10474173 0.00033032682
-0.0005134766 -0.025704028 -0.050334636 -0.022112222 -0.068829045 -0.048886113 -0.10325941 0.0039626705

sequential/dense/MatMul f4 [128, 9]
00000000: 65e8 cd3d 1d24 823e 07e7 833c e144 3ebe
00000010: 3312 503c 30fb 1bbd fee0 8d3d 4422 613d
00000020: bdf3 1bbf 8440 f8bc 2630 8a3e 9421 1d3d
00000030: 0318 5dbe 538d a43d e900 bbbd 8f09 02bb
00000040: 038d f6bd fbc6 af3e 8c86 e1bd 1165 b1bd
00000050: 2850 aabc eae9 ec3d e279 91bd e133 19be
00000060: a040 8c3c d80e 4ebe 0804 21bd b97d 0cbf
00000070: 7cdd 713e e56e 1f3e 6231 9d3e b652 84bc
00000080: 9f97 2cbf da5d 253e c96b 41bc 4e68 dfbb
00000090: add5 f73d ab2c ba3e 1d21 e0bc 7a8c 2dbd
000000a0: 89ba f63b 4a13 43bc 0e35 e4be 1aea b43a
000000b0: 8839 fbbd 9c21 a1be ca0a 6abc 8b7a e6bd
000000c0: 6a17 4dbe a14f 8ebc 288e e53c 0697 d93c
000000d0: 8ae4 31bd 520e 083d ccec 3f3e 6df4 223e
000000e0: 5cff abbd 6097 c2bd 279a fb3c fac8 593d
000000f0: f967 92be 12be 6ebd 30ac df3e cfc6 063e
00000100: bfc1 b73d 5224 61be ea77 5ebe c951 6cbe
00000110: a1b6 433d 4b62 30bd d820 513e 5845 653e
00000120: e450 b3bd 0b48 1ebe 288f 803a 02af 89be
00000130: 055f 74be b130 943e f0e5 4bbe 726c 5f3b
00000140: ae14 50be 9fb5 f23d 6155 b7bd b1bd 743e
00000150: 4a2e 953d d852 c2bd 179d 14be 57c6 ad3d
00000160: 3926 ecbd a562 2dbe 12e3 843e 197f 963d
00000170: 2ab8 45be e879 d2bd 89e7 33be 8507 563e
00000180: 6d21 4ebe 3b12 13be e654 17bf 0a9d 87bd
00000190: 9abc a0be 7882 203e 107f 213e 15b1 c73d
000001a0: e887 8e3d d56e c2be 78d3 13be 3db9 2d3e
000001b0: 624e fdbd 408e a8bd 9070 1a3e db8e 88be
000001c0: 6d4d 38be 7ca3 34bd 48b0 553c 0948 243e
000001d0: 0156 80be 307c a43d b78d f83d 6f38 d43d
000001e0: dea9 10be 60f5 5f3d c143 9dbc 3295 af3d
000001f0: 0d12 483c a5ee 30bf c249 10bd 5380 753c
00000200: b4dc 0c3e 6009 213e aa5b f03c 9e2d cebc
00000210: 40e8 333e 8903 d3bc 01ce f0be db91 21bd
00000220: 3ab4 3b3d 9f9b 99be 1a46 16be 15f9 90bd
00000230: b3ad 0d3d f1d5 303e c7d6 98be a841 21be
00000240: 4b6f 00be 38b6 873c b02e e2bc aa9b c83d
00000250: 0d50 4bbe c895 903c d569 4dbe 208e bfbc
00000260: 40ee 84bc 628d d73d f352 2dbe 5304 a43b
00000270: f8ee d13d 54c5 0d3d 3cda 8fbd ab7b dabe
00000280: d852 a9bd c7c1 50be 4e4e 923d ccd0 29be
00000290: 9e67 bc3d 600d 93bc e7e3 debd 58de 94bd
000002a0: 6d13 c4bd 55d7 acbd d794 43be be0f f33d
000002b0: 0509 45be 28ec 12be d55c 48be 34d0 7d3d
000002c0: 67c5 f5bd e25e d9bd 4735 0dbe f8d1 a53c
000002d0: 6003 2c3e 3ba6 9dbd 0768 cebd 8361 513d
000002e0: 2d5a 4d3d 7717 13bf 4630 07be c79a 13bc
000002f0: 96c7 dc3e 514f 56be 0fe3 9ebb 6aa6 32bc
00000300: fc8f 3dbe e8cf 8cbe 9a82 943e cd74 ae3d
00000310: 80b3 bcbd 8a9c 993b 50a5 dd3c 8808 a93c
00000320: 70ce 33bc fc33 30be b116 cebd c40a 6f3d
00000330: 9d34 35be f923 c1bd 4a3b 09be 7239 82bd
00000340: baad 80bd 1228 32be 3301 66be ea72 e5bd
00000350: 1a55 973e 8c6c e8bd aa65 2abe 3e2d 1dbe
00000360: 6789 b1bd 8a1c 9ebc 45aa 57bc 28bd 6a3e
00000370: 2d13 a9bd b9dd b3bd fa28 553e 6853 e53d
00000380: bd5e 0e3f 1bef 893d 0b21 83be 0e09 d43d
00000390: ca08 0c3d 3dc6 50bd 081f 84bd 3155 ba3b
000003a0: 2dec 2339 c532 d0bc 39c9 1e3c 9b44 3bbe
000003b0: 769d 963c a832 a73d decb d93d cdac b0bd
000003c0: 763c 493e 9630 ddbc ac85 e53e a023 dbbb
000003d0: 1911 4ebe 8a2c 4e3c 6555 143e a7ea 45be
000003e0: 9c00 4cbc 75bf 8d3d b22f 1dbe f935 003e
000003f0: 1e8d f2bb a545 aabe f7b8 453e b186 8bbe
0.10054091 0.25418177 0.016101373 -0.18580963 0.0126996515 -0.038081348 0.069276795 0.05496432
-0.6091879 -0.030304201 0.2698986 0.0383621 -0.21591191 0.08034768 -0.09131033 -0.0019842123
-0.120386146 0.34331498 -0.11011991 -0.08661855 -0.020790175 0.11568053 -0.071033254 -0.14961196
0.01712066 -0.2012285 -0.039310485 -0.5487934 0.23619646 0.15569647 0.3070174 -0.01615272
-0.67418855 0.16149083 -0.011805483 -0.006817854 0.12101302 0.36362204 -0.02735954 -0.042370297
0.007529561 -0.011906454 -0.44571728 0.0013802678 -0.122668326 -0.31470954 -0.014284799 -0.11253842
-0.20028463 -0.017371954 0.028021887 0.026561271 -0.043430842 0.033216782 0.18742675 0.15913554
-0.08398315 -0.09501529 0.030713154 0.05317018 -0.2859495 -0.058286734 0.43686056 0.13161777
0.08972501 -0.21986511 -0.21725431 -0.23078074 0.04778159 -0.04306249 0.20422685 0.22389734
-0.08755663 -0.1545717 0.0009808289 -0.26891333 -0.23864372 0.289434 -0.19911933 0.0034091738
-0.20320389 0.11851048 -0.089518316 0.23900487 0.072842196 -0.094884574 -0.1451305 0.08485096
-0.11530728 -0.16932161 0.2595449 0.07348461 -0.19308534 -0.10277158 -0.17568792 0.20901306
-0.20129938 -0.14362423 -0.5911392 -0.0662175 -0.31393892 0.1567477 0.15771127 0.097505726
0.06959516 -0.37975183 -0.14436138 0.16965194 -0.12368466 -0.08230257 0.15082002 -0.2667149
-0.17998286 -0.044101223 0.013042517 0.16043104 -0.25065616 0.080314994 0.12136405 0.10362326
-0.14127299 0.054677367 -0.019197347 0.085733786 0.012211335 -0.6911414 -0.03522659 0.014984208
0.13756067 0.15726233 0.029340584 -0.025168236 0.17569065 -0.025758522 -0.47032169 -0.03944574
0.045826174 -0.30001542 -0.14675179 -0.070787586 0.03458948 0.17269112 -0.29851362 -0.15747702
-0.12542455 0.01656638 -0.027610153 0.097953156 -0.19854756 0.017649546 -0.20059903 -0.0233832
-0.016226888 0.105250135 -0.16926174 0.0050053983 0.10250658 0.034612015 -0.07024047 -0.42672476
-0.08267754 -0.2038642 0.07143842 -0.16583556 0.09199451 -0.017950714 -0.10883313 -0.07268971
-0.09574018 -0.08439509 -0.19099747 0.11868237 -0.19241722 -0.14347899 -0.19566663 0.061966136
-0.12000542 -0.106138006 -0.13789855 0.020241722 0.16798162 -0.076977216 -0.100784354 0.051118385
0.050134826 -0.5745768 -0.13202009 -0.00900907 0.43121022 -0.20928694 -0.004848845 -0.010903934
-0.18511957 -0.2750237 0.2900589 0.08518372 -0.092139244 0.0046878504 0.027056366 0.02063395
-0.0109745115 -0.1720733 -0.10062922 0.058359876 -0.17695852 -0.09430689 -0.13401523 -0.06358613
-0.06283136 -0.17398098 -0.22461395 -0.11203559 0.29557115 -0.11348829 -0.16640344 -0.1534929
-0.086687855 -0.019300718 -0.013163154 0.2292372 -0.082556106 -0.087825246 0.20816413 0.11197549
0.5561331 0.06735059 -0.25611147 0.103532895 0.03418807 -0.050970305 -0.06451231 0.005686425
0.00015632874 -0.025414834 0.00969153 -0.1828789 0.01838563 0.08163959 0.10634588 -0.08626709
0.1965197 -0.027000707 0.44828546 -0.0066875964 -0.2012371 0.012583861 0.144857 -0.19327794
-0.012451317 0.06921283 -0.15350226 0.12520589 -0.0074020764 -0.3325626 0.1930884 -0.272512

sequential/dense_1/MatMul f4 [64, 128]
00000000: 281d 55be c493 afbc 3e59 e43d 2532 a7bd
00000010: 4c0a c83d 1f5b 993b c8d3 8b3d 4992 a63c
00000020: ff20 eb3d 8a34 aebd 248b 463d e3a5 4cbe
00000030: b473 06be 3e7c e23d bf9f 43be cda0 18be
00000040: 9c56 89bd 8a6f f8bd 0b3e 1d3e b1cd 0a3e
00000050: c62f 823d 58f2 b8bd 523c 973d 1e62 9c3d
00000060: b600 ecba 9100 c33d dc7d 5dbc 93ba 203e
00000070: 71b2 74be d1ef a1bd 8e20 1bbc cc9f d3bd
00000080: cd4d 0dbc e7d3 633d d8cd a8bc d969 7a3d
00000090: 3561 893c 68f3 d4bd df0b 293e d631 e2bd
000000a0: 8962 71be b450 c1bd b840 8c3d 745b f7bd
000000b0: 164f f03c 8020 05be 9eb0 1bbe a118 0abd
000000c0: fa8f c2bd 4d5a ef3c c6d0 003c fde5 0d3e
000000d0: ab7a 8abd 737b 07be 11da 05be 609d d9bb
000000e0: 56a2 bc3d 489f f03c e945 3dbe c7fb e6bd
000000f0: 78dc 37be 2971 54be 4282 04be 2224 a53d
00000100: 404c 2abe fd08 1fbe 7c8b d1bc 7302 74bd
00000110: be68 31bc 44aa 723d 5f69 75be 836b 543d
00000120: f082 71bc 746e f8bd 03e0 03be 4ae8 1fbe
00000130: c547 12be 7f8c 30bd ce22 2ebe a0ef 23bd
00000140: 2609 66bd 6781 fcbd e254 333d 92fa 823d
00000150: 5f36 38be aba4 963d b955 39be b345 293c
00000160: f6d5 f43d abfd 0ebe 059d c6bc c5bc f7bd
00000170: e085 09bd 1b30 b83d 7a31 a7bd 5b80 b2bd
00000180: db2d 133e 752f 323e b8e0 de3c 0202 ec3d
00000190: d2de fa3c b95b 08be c241 cb3d 0e52 e63c
000001a0: a1c6 9c3d 3909 43be 4fbd 093d 1e5e b5bd
000001b0: 97e8 51be 8eb5 57be def7 4ebe 8b29 c2bd
000001c0: d639 d03d 6275 0abe 2eae cebd 41bc 143e
000001d0: 3cdb 28be bfeb 80bd 1bd6 40bd fe10 753d
000001e0: 03ff d0bd 283d e53d 473a 49be 3fa5 033e
000001f0: 7251 5dbd 8e82 8c3d ebc7 56be 3b88 0a3e
00000200: d148 5fbe c540 10be 969d d43d 3eca 1cbd
00000210: ffb7 24be d999 55be d631 5bbd 3f3d a3be
00000220: aa52 5d3e c1cb 953e f348 14bd ca81 eabd
00000230: 3fc3 2b3c 4062 733b d1e2 253d edc7 3dbe
00000240: 9b62 1e3e 0fcf 11bb ea5b 69bd 7210 06be
00000250: 1e14 a9bd 9f36 913e 2d4d 203e 853d e7bd
00000260: 1de2 85bd 294c 97bd df80 bcbc b091 7b3d
00000270: 343b 123b 1888 d23d 0a37 033e 37c3 05bf
00000280: b677 89bd b357 69be 1fec 19be 1f02 8fbd
00000290: b799 43be 163b 4fbe c96a 36bd 3ed1 8a3d
000002a0: 02af bb3d 40e7 01be df5f b0bd c0fa 3dbf
000002b0: 18ed c83d 68aa ef3d 5cf3 943d eed5 053e
000002c0: 489a 8abe 775c 2ebe 196b 6bbe 8053 e7bc
000002d0: c61a 4bbd 736d 25be ecbb 74bc 97cc 19be
000002e0: b208 0d3e 5471 d63d fe2b 12be 11be 153e
000002f0: efe0 1c3d 3eeb 91bd e430 0dbe 24c9 76bd
00000300: 49df 053e 9472 783e 4268 823d 14f2 f3bd
00000310: 66e4 3abe f995 193e 0e99 9dbd 61de b5bd
00000320: 7e4b 1ebe 8372 883d 74b6 ee3d f974 153e
00000330: 81e2 643d 5c2e d03c 2111 5ebd 332c fcbd
00000340: 59c8 a1bb 6152 863d e3fe e4bd 186f 04be
00000350: 05b3 893d 0c11 cb3d e45a 3e3d 25e4 ec3e
00000360: 7061 7e3d 9f38 ce3d 2343 bf3d f2d0 c43d
00000370: cef4 ab3d ead0 0d3e 4c13 e8bd 3486 81bd
00000380: 4e02 97bd 0408 d73d 8a22 ab3d 2069 323d
00000390: d0b0 173d b1b8 0e3d 3839 2dbe 6147 353e
000003a0: ab59 50bd 5d57 4f3e 370d f23d 880b 9dbd
000003b0: b953 1f3e 954d 84be e43b 4e3d a3d6 4b3e
000003c0: edf1 0b3e 5111 acbd 2a8b 303e 1a00 c83d
000003d0: 00f7 b3be 00c7 2a3b 4c38 16bd c368 483d
000003e0: 7697 013d 64c3 83be 9e9d b1bc 00e3 8a3d
000003f0: 5dda 913e 3d82 913d b6a8 2c3e cb88 833c
-0.20811903 -0.021432765 0.11149834 -0.08163861 0.09767589 0.004680052 0.068275034 0.020333426
0.11480903 -0.08506115 0.04847254 -0.19985156 -0.13130075 0.110588536 -0.19103907 -0.1490509
-0.067059726 -0.121306494 0.15355699 0.13555028 0.06356768 -0.090305984 0.07384552 0.07635902
-0.0018005583 0.095215924 -0.013518777 0.15696172 -0.23896195 -0.079070695 -0.009468211 -0.10333213
-0.008624506 0.055622008 -0.020605966 0.0611361 0.016769985 -0.103979886 0.16508435 -0.11044662
-0.23572744 -0.09439221 0.068482816 -0.1207799 0.029334586 -0.13000679 -0.15204093 -0.033714894
-0.095001176 0.029217863 0.0078622755 0.13857265 -0.06761678 -0.13230686 -0.13071467 -0.006641075
0.092106506 0.029372826 -0.184837 -0.112784915 -0.17955196 -0.20746292 -0.12940314 0.080635324
-0.1663065 -0.15530773 -0.025579207 -0.05957265 -0.010828195 0.05924441 -0.23965977 0.051860344
-0.014740691 -0.12130442 -0.12878422 -0.15615955 -0.1428519 -0.043102738 -0.17005464 -0.040023446
-0.05616107 -0.12329369 0.043782122 0.06395449 -0.17989491 0.07355627 -0.18099107 0.010331559
0.11954872 -0.13963954 -0.024244795 -0.12096552 -0.03357494 0.089935504 -0.08163734 -0.08715888
0.14372961 0.17400916 0.027206764 0.115238205 0.030623827 -0.1331624 0.09924652 0.028115299
0.07655073 -0.19046487 0.033627804 -0.08855842 -0.20498882 -0.21065351 -0.20211741 -0.0948058
0.10167281 -0.1352134 -0.10091816 0.14524938 -0.16489881 -0.06294965 -0.047079187 0.05983066
-0.102048896 0.11193305 -0.19651137 0.12856005 -0.05403275 0.06860839 -0.209747 0.1352853
-0.21805121 -0.14087208 0.1038162 -0.03827881 -0.16085814 -0.2085947 -0.053514324 -0.31882665
0.21613565 0.29257014 -0.036202382 -0.114505365 0.010483562 0.003713742 0.040499512 -0.18533297
0.15467303 -0.002224866 -0.05697242 -0.13092211 -0.0825579 0.28361985 0.1565444 -0.11291031
-0.06537268 -0.07387573 -0.02301067 0.061418235 0.002231312 0.10279864 0.12813964 -0.52251
-0.06712286 -0.22787361 -0.1503148 -0.069828264 -0.19101606 -0.20237383 -0.044535432 0.06778191
0.091642395 -0.12685871 -0.08612036 -0.7421074 0.09810847 0.11702424 0.072729796 0.13069889
-0.27070832 -0.1702746 -0.22990073 -0.028238058 -0.04958608 -0.16155033 -0.014937382 -0.15019451
0.13772848 0.104708344 -0.14274594 0.14623286 0.03830045 -0.07124947 -0.13788182 -0.060250416
0.13073458 0.24262458 0.06367542 -0.11911407 -0.1825119 0.14998616 -0.076952085 -0.08880306
-0.15458485 0.066624664 0.11655894 0.14595403 0.055880073 0.02541273 -0.054215554 -0.12313118
-0.0049372134 0.06558681 -0.11181428 -0.12933004 0.067235984 0.09915361 0.0464734 0.4626781
0.062104642 0.10069393 0.09338977 0.09610166 0.08396302 0.13849226 -0.113318056 -0.06324425
-0.073734865 0.10499576 0.08356197 0.043557286 0.037033856 0.034844104 -0.16916358 0.1770301
-0.050866764 0.2024817 0.11818927 -0.07668215 0.15559281 -0.2584044 0.050350085 0.19906096
0.13666506 -0.0840174 0.17240587 0.09765644 -0.35149384 0.0026058555 -0.036674783 0.048928034
0.031638585 -0.2573501 -0.021681603 0.06781578 0.2848691 0.07104919 0.16861233 0.016056439

sequential/dense_2/MatMul f4 [32, 64]
00000000: e0f0 013e 34b1 aa3d c0ea 37be 1784 653c
00000010: e537 023d 10be 62be 8887 0bbe 6c93 0f3c
00000020: 183b 09be cbb4 853d a261 d8bb 63d4 f13d
00000030: 348b dc3c 0650 90be 7f30 883d 0021 193d
00000040: a179 eb3c 16d4 ea3d dfe6 003b ddc1 fd3c
00000050: 6c7c 2bbe 0c72 2a3e 1eb3 33be a15e f13d
00000060: 0729 2cbe 413c 3a3e e30b 6abd 84a5 3dbe
00000070: d35f 8abe 502f 483e e525 50be 5ecd 013e
00000080: 4967 69be a0cd 76be 8750 473c 8453 5cbe
00000090: 3f46 82bd 4b95 803c 77da a5bd 2d77 b43c
000000a0: f101 093d 93b0 77bb 9445 a2bd 8bb6 98be
000000b0: 74d2 19bd 825e b8bd 8ca4 61bd 1fb2 883d
000000c0: 3e9b 8ebc 9f4b da3d 2daf 12be 2bae 84bd
000000d0: e99d 9bbc f4e2 0ebd f067 2abd b1b1 bfbc
000000e0: 51b0 f23d 8622 3ebe fefb 453e a8ed 3b3d
000000f0: e91d dcbd 40f4 f7bd eb28 71be cc09 783e
00000100: e89e 863d 7843 30bd 07bc 593e 8ef2 b7bd
00000110: 16fb c03d 803f 50bc 8f43 e53c c1e1 233d
00000120: 82af 3cbe a9c4 08be 6619 4c3e f654 2fbe
00000130: 2ac3 3abe 73ac 31bd 7e3b 113e b4c5 363e
00000140: 05af a6be 4930 80bc 7f7a 56bd 2845 f0bd
00000150: 60bd b0bc 73a1 433d e417 7abd b6ab 1cbe
00000160: eabc 44be cd95 cbbd 4795 38be 7d8c 28bc
00000170: 2424 8abd 0691 7ebe 8c18 dbbd 6eb7 53be
00000180: 102a 1ebd 0862 68be 39bd 2fbe 8e2a 86be
00000190: 6053 28bd 276c e13d 5c97 1abe eb2d d9bc
000001a0: 6fb4 10be 29cf acbd ae22 2bbe ed56 b43b
000001b0: 7b7b 1fbe 6984 6dbe fba8 35be 5ad1 0abe
000001c0: 4fef 4f3e 7bff 66bc 3448 51be 2f59 e73d
000001d0: 9ca6 36be a0d9 23be 2496 523e 3848 483e
000001e0: 7952 f23d 2287 14bd 4f86 1fbe 8ef3 78be
000001f0: 0936 fe3d 8cc8 71be 21bc e03d e43e 573e
00000200: eca0 2abe d2a6 8bbe a468 be3c 6249 20be
00000210: 37d7 c53a cbd3 f8bd 6809 48be da23 853d
00000220: 1b74 52be 7cc9 113d 3cd9 233e 7965 9abd
00000230: 4708 3abe 5e04 8bbe 41bf 803d e07f 6c3d
00000240: 0b35 033e 9476 23be 44d5 d53b b614 7cbd
00000250: 3831 853d bd7d e93d 6ecd 8a3e 9610 6cbd
00000260: c109 803d c122 193d 4833 abbe b976 ea3d
00000270: 5a93 4e3e eaa1 6e3e e529 57be 3000 3d3e
00000280: 7019 d0bd f961 4d3e c391 fabb a491 283e
00000290: a802 c9be 575e a83d d0de 9c3d 284c 203e
000002a0: d7ab afbe 59d0 853b 7e2b eabd a954 adbd
000002b0: 0c5a 183e 332f 0cbe 8186 fd3b 86ad 4abe
000002c0: f14e 8bbe 06de 3e3e 1752 33be 201b 4dbe
000002d0: e0a8 a93e 78bf a3bd fce0 453c 6fd2 ef3c
000002e0: 1da0 e4bb a469 733e 5c9d fbbd bfb7 5abd
000002f0: 9760 153e e391 1ebe 4b5b 57be 20e1 c7bd
00000300: 140b a33d 658d 063e 8221 303d 5882 6f3e
00000310: ae8e 2f3d d0b5 cd3d 4929 183e 7171 67bd
00000320: 462d acbd 40de 1dbe 463c d03c 1fae 6cbe
00000330: ff56 253e 45e3 713d c674 8e3d 4262 5fbd
00000340: be25 a73d 4313 7d3e a5e2 75bd 1513 33bd
00000350: c0b4 52bc 90e9 713d 6b42 5bbe 0281 29bc
00000360: ddaf f63b a54d 043d b833 523d a447 593e
00000370: b05f 81be 2b91 dcbd d87d 3ebe 8d50 883e
00000380: 81ea 173e 4089 9c3e 2ae1 bbbd acf4 533e
00000390: ad93 a1be d36e 093d 64ea 0bbe c45f 823e
000003a0: e12a 973c af05 c8bd f8ca 8b3c 95a4 76be
000003b0: bed8 40be ca71 0ebe 9b45 f6bd 1d4f 91bc
000003c0: 9e9d 4bbd d132 4e3d 37d4 e43d 1a2e 743d
000003d0: ae6a dbbd 109b 43bd 38e2 93bd 2aa3 643e
000003e0: f9cd ecbd 6ba1 23bc 4063 af3e 50dc b0be
000003f0: ed48 bdbd 671c 64bc cdc7 da3b e523 593e
0.12689543 0.0833458 -0.17960644 0.014008543 0.031791586 -0.22142816 -0.1362592 0.008763175
-0.13401449 0.06528624 -0.0066034356 0.11808088 0.026921846 -0.28186053 0.06649875 0.037384987
0.02874452 0.114662334 0.001966886 0.03097623 -0.16746682 0.16645068 -0.17548797 0.11785627
-0.16812526 0.18187048 -0.057140242 -0.1852017 -0.27026233 0.19549298 -0.20326956 0.12675998
-0.22793306 -0.24101877 0.012165195 -0.21516234 -0.06361055 0.015696188 -0.080983095 0.022029484
0.033449117 -0.0037794455 -0.07923427 -0.2982677 -0.03755422 -0.09002401 -0.055088565 0.06674599
-0.01740801 0.10658955 -0.14324637 -0.064785324 -0.018996196 -0.034884408 -0.04160303 -0.02340016
0.11850036 -0.18567857 0.19334409 0.045880944 -0.107478924 -0.12107134 -0.23550765 0.24222487
0.06573278 -0.043033093 0.21263133 -0.089818105 0.09422891 -0.012710452 0.027986316 0.040010218
-0.18426326 -0.1335627 0.19931564 -0.17122254 -0.18238512 -0.04337735 0.1418285 0.17848855
-0.32555404 -0.015648024 -0.052362915 -0.117319405 -0.021574676 0.04776139 -0.06105794 -0.15299878
-0.1921269 -0.099406816 -0.18025695 -0.010287401 -0.067451745 -0.2486001 -0.10698041 -0.20675442
-0.038614333 -0.22693646 -0.17162026 -0.26204342 -0.041095138 0.110069565 -0.15096802 -0.026511153
-0.1413133 -0.0843795 -0.16712448 0.0055035264 -0.15574448 -0.23195042 -0.17740242 -0.13556424
0.20306133 -0.014098997 -0.204377 0.11296307 -0.17836994 -0.16000986 0.20565087 0.195588
0.11832137 -0.036261685 -0.15578578 -0.24311659 0.1241265 -0.23611659 0.10973383 0.21020085
-0.1666295 -0.2727571 0.023243256 -0.15652993 0.0015094046 -0.12149771 -0.19534838 0.06500979
-0.20552103 0.03559254 0.16000837 -0.075388856 -0.1816722 -0.2715177 0.06286479 0.05773914
0.12813203 -0.15963203 0.0065256674 -0.06154319 0.06503528 0.11400936 0.27109855 -0.057633005
0.062518604 0.03738666 -0.33437562 0.11448426 0.20173398 0.23303953 -0.21012075 0.18457103
-0.10161102 0.20056905 -0.0076467707 0.16461807 -0.3925984 0.08221119 0.076596856 0.15654051
-0.3431079 0.004083675 -0.11434077 -0.08463413 0.148781 -0.1368988 0.0077369814 -0.19792756
-0.27208665 0.18639383 -0.17511784 -0.20029879 0.33136654 -0.07995504 0.012077566 0.029275147
-0.006977095 0.23770767 -0.12285873 -0.05339789 0.14587627 -0.15485339 -0.21030919 -0.09759736
0.07961097 0.13139875 0.043000706 0.23389566 0.04286068 0.100444436 0.14859499 -0.05650467
-0.08407073 -0.15416813 0.025419366 -0.23113297 0.16146468 0.05905463 0.069558665 -0.054537065
0.081614956 0.24714379 -0.0600306 -0.04371937 -0.012860477 0.059060633 -0.21412055 -0.010345699
0.0075282888 0.03230061 0.051318854 0.21218735 -0.25268316 -0.10769876 -0.18602693 0.26623955
0.1483555 0.30573463 -0.09173806 0.20698804 -0.3155798 0.033552956 -0.13663632 0.25463688
0.018453063 -0.09766709 0.017064556 -0.2408622 -0.1883268 -0.13910595 -0.12024995 -0.01773792
-0.049710862 0.05034143 0.11173289 0.05961428 -0.10713707 -0.0477553 -0.07220882 0.22327867
-0.11562724 -0.0099872155 0.3425541 -0.34543085 -0.09242425 -0.013922787 0.00667665 0.21205099

sequential/dense_3/MatMul f4 [4, 32]
00000000: bb72 94be 7196 18be b951 a1be 8525 f93d
00000010: 869e eebe 328c aa3e 85d1 aebe 2e42 80bd
00000020: d833 493e b025 57be 0945 1cbe 87c0 4cbe
00000030: a731 42bd 048b 14be 12a7 563d 7c73 7d3e
00000040: ca67 903d 866c bf3d ed9f efbe a4c2 a3be
00000050: a26e 58be 2430 8cbe f81d 3c3d b9ad 163e
00000060: d036 5b3e 042d bc3d 0a30 a23e b43c ddbe
00000070: 9b17 693e 3378 42ba b4d2 2bbe 831a 583d
00000080: b3f1 463e a434 04bd 012d 7fbe cde8 343e
00000090: ab38 61be e0a6 d2bd a90f 5c3e df4c 10bd
000000a0: 7a04 543e 33a7 07be cadc a0be 3a0c debe
000000b0: 8306 fbbd 5843 a13d 7799 253d f00b eebd
000000c0: 5869 b93d fa1b 5f3e 65d8 4abe f986 25be
000000d0: bd43 e03d 3aef 2bbe 8834 cc3d 2566 7cbe
000000e0: fc12 683d a0ef edbd 398d 803e 33d7 8f3e
000000f0: 3575 463e 03f9 f7be 2820 373c cdc1 31bc
00000100: 897b 873b 0bcb 06bf aa53 a63d ad39 433e
00000110: 45ba febd f9c7 7fbe 56ec a3be 2bc0 ebbe
00000120: 3605 9fbe 3a21 c4bd 3ae3 3d3d 1b88 ae3e
00000130: 2877 c2be a263 543e 0edb fdbd 6e5c f73d
00000140: 0e47 cbbe 5c7e 56be 6107 5fbe ff90 0ebe
00000150: 321e a03d eff7 9dbe 5819 51bd 34a8 d8bc
00000160: 19be 973c 8245 973d 3e8e 0c3e eba9 e23e
00000170: 9f62 c33e 7140 38be 88a2 833d 05ff 243e
00000180: b6ed 443d 3e1a f73d 1ed0 b83c d664 50be
00000190: 5b7f 48be a94e 15be f6d9 c53e 32c3 cebd
000001a0: e8f6 13be bd9c dc3d a6fe a4bd 1e63 79be
000001b0: 9a05 a83d b766 86be e888 4ebe a00a d43c
000001c0: 0b61 13be 9479 3e3d c3b5 8fbe 4175 7cbe
000001d0: 5d42 833d 4ce3 07be 9be4 06bf 9e17 49be
000001e0: c775 043d 44ce 573e 28f3 f8bd 94e5 393c
000001f0: d225 4b3e 76b2 16bf e964 13be 4f72 87be
-0.28993782 -0.14901139 -0.31507662 0.121653594 -0.4660532 0.33310086 -0.34144226 -0.06262623
0.19648683 -0.2101047 -0.1526071 -0.19995318 -0.047410633 -0.14506155 0.052405424 0.24751085
0.07051046 0.09346871 -0.468017 -0.31984437 -0.21135953 -0.27380478 0.045927018 0.14714707
0.21407628 0.091882735 0.31677276 -0.43210375 0.22762911 -0.0007418424 -0.16779596 0.05275966
0.19428138 -0.032276765 -0.24919511 0.17666931 -0.21994273 -0.10285735 0.21490349 -0.03522956
0.20704833 -0.13247375 -0.3141845 -0.43368703 -0.122571014 0.07874173 0.04042956 -0.11623371
0.09053296 0.21788016 -0.1980911 -0.16164769 0.1095042 -0.16790476 0.09970957 -0.2464834
0.05665873 -0.116179705 0.25107744 0.2809387 0.19380648 -0.48432168 0.0111771 -0.010849428
0.0041345996 -0.5265357 0.081214264 0.1906497 -0.12437872 -0.24978627 -0.32016248 -0.4604505
-0.31058663 -0.0957665 0.04635928 0.34088215 -0.37981534 0.20741132 -0.12395297 0.120781764
-0.39702648 -0.2094664 -0.21780159 -0.13922499 0.07818259 -0.3085322 -0.05104956 -0.026447393
0.018523263 0.073863044 0.13726136 0.44270262 0.3816118 -0.17993332 0.06427485 0.16112907
0.04807826 0.12065552 0.022560176 -0.20350966 -0.19579832 -0.14580788 0.38642853 -0.10095824
-0.14449656 0.10772083 -0.08056383 -0.24354216 0.082041934 -0.2625024 -0.20169413 0.025883973
-0.14392488 0.046502665 -0.2806836 -0.24654104 0.06409142 -0.132703 -0.52692574 -0.19637915
0.032338884 0.21074778 -0.121557534 0.01134624 0.19838646 -0.5886606 -0.14393963 -0.26454398
