Model Capstone/model_quality.tflite (tflite, 11616 bytes, 6 tensors)

sequential_1/dense_5/BiasAdd/ReadVariableOp f4 [5]
00000000: 9a5e 9d3e 54e3 17bf d01b f13b c3fa 313e
00000010: d22f c23d
0.30736238 -0.5933125 0.007358052 0.17380814 0.09481777

sequential_1/dense_4/BiasAdd/ReadVariableOp f4 [32]
00000000: 39bc 2fbc 0000 0000 59f1 46be f872 81bc
00000010: 0000 0000 d7dc 39be 3675 193f a4cf d0bc
00000020: b368 273f 7a5c d4bc eeb8 08be 0000 0000
00000030: da42 cdbd d7c4 15bf 0986 3c3f 0000 0000
00000040: 0000 0000 1df9 0bbf afed d9bd 808b 16bc
00000050: f754 18bf 3fa5 e93e 6bde 98bc 0000 0000
00000060: 4dd8 fd3e 9a67 b3be 0000 0000 77d2 3c3f
00000070: 5d8b 03be 5a04 663f 8674 20bc 7088 23bf
-0.010726028 0.0 -0.19428004 -0.015801892 0.0 -0.1815065 0.59944475 -0.025489636
0.65394133 -0.025923003 -0.13351795 0.0 -0.100225165 -0.5850348 0.7364202 0.0
0.0 -0.5467699 -0.10641038 -0.009188533 -0.59504646 0.45633885 -0.018660745 0.0
0.49579087 -0.3503998 0.0 0.73758644 -0.12846132 0.8985039 -0.009793406 -0.6388006

sequential_1/dense_3/BiasAdd/ReadVariableOp f4 [64]
00000000: f3d7 2bbe c686 913f 863f 34be 32e8 40be
00000010: 0000 0000 0000 0000 0000 0000 56f4 913f
00000020: 0000 0000 6b6b 24be f3b4 963f 0000 0000
00000030: 0000 0000 0000 0000 0000 0000 0000 0000
00000040: 0000 0000 27e9 21be 0000 0000 0000 0000
00000050: bdd5 39be 0000 0000 0000 0000 0000 0000
00000060: 0000 0000 0000 0000 0000 0000 0000 0000
00000070: 0000 0000 0000 0000 8898 2fbe 0000 0000
00000080: 0000 0000 7429 27be 0000 0000 0000 0000
00000090: 0000 0000 8b72 8f3f 0000 0000 0000 0000
000000a0: 0000 0000 0000 0000 0000 0000 0000 0000
000000b0: 8946 3ebe 0000 0000 0000 0000 0000 0000
000000c0: 0000 0000 0000 0000 0000 0000 8d5a 2bbe
000000d0: 0000 0000 0b8b 3ebe 0000 0000 0000 0000
000000e0: 0000 0000 0000 0000 f7d3 2cbe 66b1 15be
000000f0: ecec 2ebe 0000 0000 4ed6 9b3f 0b72 eab7
-0.16781597 1.1369255 -0.17602357 -0.18838575 0.0 0.0 0.0 1.140269
0.0 -0.16056602 1.1773971 0.0 0.0 0.0 0.0 0.0
0.0 -0.15811597 0.0 0.0 -0.18147941 0.0 0.0 0.0
0.0 0.0 0.0 0.0 0.0 0.0 -0.1714803 0.0
0.0 -0.16324407 0.0 0.0 0.0 1.1206831 0.0 0.0
0.0 0.0 0.0 0.0 -0.18581595 0.0 0.0 0.0
0.0 0.0 0.0 -0.16733761 0.0 -0.18607728 0.0 0.0
0.0 0.0 -0.16877733 -0.14618453 -0.17082566 0.0 1.2174776 -2.794808e-05

sequential_1/dense_3/MatMul f4 [64, 1]
00000000: 4742 bc3f 25ef 4dbe eb01 c53f c06a d43f
00000010: e02f bbbd 8836 0cbe 58db b6bd e42d 8c3e
00000020: 386d 35be 2352 b63f 74cc 7f3c 608d 42be
00000030: 1e43 dbbd 8c2d 69bd aa85 55be e2f9 60be
00000040: 305a 99bc 2f05 bf3f a0e1 16bd a429 65bd
00000050: 7e18 cc3f ecb4 d0bd 00c4 d2bc 7fa5 45be
00000060: e2a3 71be 35a4 15be 730d 69be 603a f0bc
00000070: aac0 f2bd c531 44be 2ef0 ca3f 0ee9 f5bd
00000080: bc1b 97bd e576 bc3f 2caf 80bd 04c9 f7bd
00000090: c822 27bd 7667 dcbe 0a41 e6bd 350e 99be
000000a0: 8355 87be 3cad 72be 802a 4ebb 46f5 09be
000000b0: f63a d03f 9044 e2bc e0b2 96be 92a4 b0bd
000000c0: 0d60 47be b25d c2bd 6096 7fbd 8c72 bc3f
000000d0: 6b39 7bbe 0cc2 d73f ee4d 22be ed2a 96be
000000e0: 1c9f 50be 0991 7ebe 19a7 d53f 1404 a23f
000000f0: 2e71 be3f 3ee8 4fbe 3d46 c73e a258 bfbc
1.4707726 -0.20110758 1.539121 1.6595078 -0.09139991 -0.13692677 -0.08928555 0.27378762
-0.17717445 1.4243816 0.01561271 -0.18999243 -0.10706161 -0.056928203 -0.2085177 -0.21970323
-0.018719763 1.4923457 -0.036836267 -0.055947915 1.5944974 -0.10190758 -0.025728226 -0.19301413
-0.23597673 -0.14613421 -0.22759037 -0.02932471 -0.11853154 -0.1915961 1.5854547 -0.12007342
-0.07378337 1.4723784 -0.062834114 -0.120988876 -0.040804654 -0.43047684 -0.11242874 -0.29893652
-0.26432428 -0.23698896 -0.0031458437 -0.1347247 1.6267993 -0.027620584 -0.29433346 -0.08625139
-0.19470234 -0.09490527 -0.06239927 1.4722457 -0.24533622 1.6856093 -0.1585004 -0.29329625
-0.20373195 -0.24860014 1.6691619 1.2657495 1.487829 -0.20303437 0.38920775 -0.023357693

sequential_1/dense_4/MatMul f4 [32, 64]
00000000: fa65 08be 4c1c 44be 38b0 ee3d d883 223e
00000010: 98fd 85bd 04f5 543e 001c 8bba fbec 483e
00000020: 902c d0bd 5b06 26be b7da 27be a060 45be
00000030: 40e4 0a3e 3406 4b3e 901b e4bd 6811 55be
00000040: b846 36be 6a18 243d 68eb 6cbe 8c3f 28be
00000050: 4f19 57be 28b8 e43d 8061 cabd e007 f6bd
00000060: e00e d43d 7c41 043e 1c79 633e 7c45 76be
00000070: f879 753e 4024 77bc 9b23 1fbe 105a 0fbd
00000080: 00ee 15bd 5804 a03d 4046 e33c 7048 5ebe
00000090: c0bc 26be a7ee e2bd 0c9a 7c3e 8074 c83b
000000a0: f4b0 58be ec3f 4ebe bc2c 0dbe 80b9 063e
000000b0: 1c70 edbd d043 503d 90f4 293d f02d a53d
000000c0: 80a6 483e dcc4 31be 5c28 4dbe feee 7bbe
000000d0: 001e 683d b12b f6bd f833 113e 446f 1ebe
000000e0: 480a 22be 8453 353e ba3b e2bd 040a 02be
000000f0: 0342 973d 4495 623e 0647 333e 0d49 2b3e
00000100: f4f5 39be c03d 9f3d 20f8 52bd ec77 2bbe
00000110: 28ec 1b3e e400 423e cc93 0fbe 900b 1d3d
00000120: c024 5b3d 8002 afbd 4076 22bd 34c7 7ebe
00000130: 30fb 073e 9067 1f3d c0ec 68bc 402e 7a3d
00000140: 782c fc3d 5078 aabd 9cc2 31be 0862 f03d
00000150: f443 3b3e 8070 a13c 9cb2 1d3e 58a2 9cbd
00000160: 80ab f0bb 9018 1b3d 78f5 46be 1cea 003e
00000170: 5863 ef3d a8dc 68be a093 8dbc 0c41 383e
00000180: 60c0 22be ac6b 343e 687a 2f3e 40a4 5dbc
00000190: b863 7cbe 48e2 3abe 947f 79be f8c1 f6bd
000001a0: 9cbe 5cbe a0b8 0abe 7884 b23d e08e f33c
000001b0: 0022 cb3b 48f2 0e3e 28b5 7fbe 7826 dfbd
000001c0: 34c7 62be 409c c53c 2cca 403e e0fb b93d
000001d0: 8077 14bd 8006 f3bc 78a6 19be b835 a7bd
000001e0: 909d f9bd 4076 dcbc 40dc 363c 801b da3c
000001f0: 80b3 eb3c 0cfa 1f3e 50c4 2ebd dcb8 6b3e
00000200: b9d7 db3f c65a 45be 830a b73f b773 df3f
00000210: 001b 2b3e 9809 63be 1824 5ebe 020b 9b3d
00000220: 10d9 873d 069b f03f 57e0 093e 5c3a 0a3e
00000230: 4454 3b3e 188b 77be 74a3 383e 002f e0bb
00000240: d0a9 58bd 8876 d03f 5c03 1dbe b0fb 6f3e
00000250: 1d8f b23f 0048 1cbc 0cde 58be 602b 6c3d
00000260: 6019 16be c0fa 35bd 1056 0b3e e026 98bd
00000270: 905f 423d 9041 b53d 5a04 e23f 0c90 07be
00000280: b040 a0bd 88ff d43f 0006 27bb a0f4 c93d
00000290: 94f8 203e 69cd 79be 3873 473e 1826 a63d
000002a0: 3010 063d 901f ed3d 40a8 6bbd 04ec 61be
000002b0: e92a d13f c0ab c03d 30ba febd 187c a8bd
000002c0: f06c 6b3e 4008 1d3c 58d2 913d aa20 dc3f
000002d0: 5861 d5bd 6e00 db3f e04e 72be 4440 4c3e
000002e0: 6859 16be 3029 353e 0997 d63f 0011 ee3f
000002f0: ee44 b13f ec8c 10be 8bec af3e 74f0 b6bd
00000300: 7872 033d 7981 ffbd 3080 43bd bbb9 6bbd
00000310: 8005 443d 2cbd 433e 68ac 3bbe f859 69be
00000320: 70ab 20be ad2e 0a3e 28b8 c7bd 60b0 873c
00000330: 805a 663e 44b1 533e 30af 9ebd 0c22 6a3e
00000340: 7458 78be 1a1b 6e3d 24ef 5bbe 4c79 65be
00000350: 40ca 1b3e e01f 263d 0c17 1bbe b01a 1fbe
00000360: 809a 23bc a07c 98bd 007f cabc 9c0f 05be
00000370: fc29 6a3e 8817 983d cca8 623d 0461 493e
00000380: 80f7 32be b89c 003e 106a 3f3d f01e 6fbd
00000390: 1c6b 1ebe 51e5 82be c8ab e23d 4042 b23d
000003a0: b482 4fbe b805 573e f82b de3d 84fd 5abe
000003b0: 0c48 bebd 74d6 0c3e 6098 37bd 009f b8bb
000003c0: 28d9 83bd ec8b 22be 601b c63d d266 333e
000003d0: c8d6 c5bd ba77 1a3e 9076 f33d 304b 79bd
000003e0: 984c c0bd 0c36 7f3e ebd4 b7bb 4d6f 993c
000003f0: 2c49 683e f0c1 683e 9355 41bd bd71 37bc
-0.13320151 -0.1915142 0.11654705 0.15870607 -0.0654251 0.20796591 -0.0010613203 0.19621651
-0.101647496 -0.16213362 -0.16392027 -0.19275141 0.13563633 0.19826585 -0.1113807 -0.20807421
-0.17800415 0.040062346 -0.23136675 -0.16430491 -0.21005748 0.111679375 -0.09881878 -0.12013221
0.103544 0.12915605 0.22214168 -0.24049944 0.23972309 -0.015084326 -0.15540926 -0.034998
-0.036603928 0.078133285 0.027743459 -0.2170732 -0.1628294 -0.110806756 0.24668139 0.0061174035
-0.21161252 -0.20141572 -0.13786596 0.131567 -0.11593649 0.05084592 0.041493 0.080654025
0.19594765 -0.17360252 -0.20034927 -0.24602887 0.056669235 -0.12020052 0.14179981 -0.15472132
-0.15824234 0.1770764 -0.11046548 -0.12699133 0.073856376 0.22127253 0.17507562 0.16727085
-0.1816023 0.0777545 -0.05150616 -0.16744965 0.15226805 0.18945652 -0.14021224 0.038341105
0.053501844 -0.08545399 -0.039663553 -0.24880677 0.13279414 0.038917124 -0.014216602 0.061079264
0.12313169 -0.08323729 -0.17359394 0.11737448 0.18287641 0.019706964 0.15400165 -0.07648152
-0.007344663 0.03786522 -0.19429576 0.12589306 0.1168887 -0.22740424 -0.017282307 0.17993563
-0.15893698 0.17619199 0.17136538 -0.01352793 -0.24647415 -0.18250382 -0.24365073 -0.12048715
-0.21557087 -0.13546991 0.08716673 0.029731214 0.0061991215 0.1395961 -0.2497145 -0.10896009
-0.22146302 0.024122357 0.18827122 0.090812445 -0.036246777 -0.029666185 -0.15004909 -0.08164543
-0.12188256 -0.026911855 0.01116091 0.026624441 0.028772116 0.15622729 -0.042667687 0.23019737
1.7175208 -0.19272909 1.4300083 1.7457188 0.16709518 -0.22171628 -0.21693456 0.07570459
0.06633198 1.8797309 0.13464485 0.13498825 0.18293864 -0.24174154 0.18031102 -0.0068415403
-0.05289632 1.6286173 -0.15333313 0.23435855 1.3949925 -0.0095386505 -0.21178454 0.057658553
-0.14658117 -0.044428587 0.13607049 -0.0742929 0.047454417 0.08850396 1.7657578 -0.13238543
-0.07824838 1.6640482 -0.0025485754 0.09861112 0.15719825 -0.24394764 0.19477546 0.081127346
0.03273028 0.11578286 -0.057533503 -0.22062689 1.634122 0.09407759 -0.12437856 -0.08226794
0.22990775 0.0095844865 0.07120198 1.7197468 -0.104189575 1.7109506 -0.23662901 0.1994639
-0.14682543 0.17691493 1.6764842 1.8598938 1.3849161 -0.14116257 0.34360155 -0.089325815
0.032091588 -0.12475867 -0.04772967 -0.057550173 0.047856808 0.19115132 -0.18327487 -0.22788227
-0.15690398 0.13494368 -0.09751922 0.016563594 0.2249546 0.2067309 -0.07748258 0.2286455
-0.24252492 0.058131315 -0.21477944 -0.22409552 0.15213871 0.040557742 -0.1514551 -0.15537524
-0.009985566 -0.07445645 -0.024718761 -0.12994236 0.22867578 0.07426363 0.05533676 0.19665915
-0.17477226 0.12559783 0.04673201 -0.058379114 -0.15470546 -0.2556558 0.11067921 0.087040424
-0.20264703 0.20998275 0.1084823 -0.21385771 -0.092910856 0.13753682 -0.04482305 -0.0056341887
-0.06437904 -0.15873688 0.0967319 0.17519692 -0.09660107 0.15084735 0.118878484 -0.06086272
-0.09389609 0.24922961 -0.0056100986 0.01872983 0.22684163 0.22730231 -0.04720075 -0.011196551

sequential_1/dense_5/MatMul f4 [5, 32]
00000000: 0587 edbd 2ea5 863e 043d babf 33ae 08bd
00000010: d4c6 373e 07b8 3cbf 2d10 d53e 916b 00be
00000020: 1bff 883f f81a 8ebe 8f52 4abf d076 243d
00000030: a43e 48bf ca2d 44bf 24fa 863f 5c5b 89be
00000040: c67d b4be 080e f0be 629a 11bf 0eb1 ba3e
00000050: 986a 4abf 933c a73e d770 a93e 9043 a13c
00000060: 15c0 4c3e 33f9 a4c0 80bb 9d3c 100c 0e3f
00000070: 297a f7be b110 803f 0ad4 b5be d541 82bf
00000080: afca 7e3e f872 863e 58bb 453f 3243 d9bb
00000090: 0068 093d f59f 013f d363 debf ce82 0abe
000000a0: 7ef9 24bf 7899 46be 26ea 0d3e 582e 79be
000000b0: 0a86 a43e 6a33 a33f 7a24 3bbf f039 243e
000000c0: 37ca 77be b019 4540 aeac 1f3d c789 bcbd
000000d0: ff1b 863f 2b46 d2bf a85d c83e 08bf 6e3d
000000e0: b975 b0bf d330 5b3f 2c13 f1bd 131e e7bf
000000f0: 1aa4 20be 268f 87c0 04c3 00be d130 8f3f
00000100: 523f 0f3e 6cea 583e fd86 c93e e644 6cbe
00000110: e289 9bbe 08c9 dc3e 25d4 703d ffed c73d
00000120: 58b6 9dbf 1809 b0bd ed91 ce3e 74ec 8abe
00000130: ab4c 803e 645b 413e 0684 3ec0 58ff 5cbd
00000140: 5815 313e 316d 31c0 c331 9b3e bd33 16be
00000150: 2283 c13e d39a 1f3e 2ec9 8f3d e200 ba3e
00000160: 3fb3 8abe 53e6 ad3e 0017 7d3d 6e7a 983d
00000170: 137f df3d b6cf 81bf a72d a1be 05fb f13e
00000180: dbca b8be 4865 5e3e cb7c 4cbc 96f5 c3be
00000190: 1091 5a3d 2ee0 7b3e 3924 12bd 9f85 43bc
000001a0: eb0e 72c0 d56a e93d c859 27bb ec0b 713e
000001b0: 285d cf3e 6b3d 9bc0 fbae 293f 9577 9ebe
000001c0: 8ccf d7bd a444 aabe 5ec1 b63d d72e 9b3c
000001d0: 5342 86c0 980e 99bd 4e5d a73e e0e2 25bd
000001e0: fea8 123f a329 793e 7329 8abe f27a 043f
000001f0: 1032 a1bc 9506 bbbd 120f 2bbe 751d 74c0
00000200: e328 a5be eced 9cbd ff46 9ac0 c0e1 183d
00000210: c469 8e3e d738 8ec0 3700 0a3f 87aa 943e
00000220: 5db0 0340 c2cc 9a3e afee 89c0 6cb3 433e
00000230: 68a9 92c0 f419 dabe c43b 923f d258 ca3e
00000240: 92a2 a53e 2a25 6b3e c3a9 81c0 cbdb b7bc
00000250: b1af 8dbe 9661 2a3f 2f1f 613e aa6d 963e
00000260: d689 023e 552a 46bf dde6 a8be b10e 1e3f
00000270: b00e 32c0 451f 8a3f c60b 78be 8010 8fbe
-0.115980186 0.26297897 -1.454987 -0.033369254 0.1794694 -0.73718303 0.41613904 -0.12541033
1.0702852 -0.2775495 -0.79032224 0.04015237 -0.7822058 -0.7663237 1.0545087 -0.26827514
-0.35252208 -0.46885705 -0.56876194 0.36463207 -0.790689 0.32663402 0.33093902 0.019685537
0.19995148 -5.15542 0.019254446 0.55487156 -0.48335388 1.0005094 -0.35513335 -1.017634
0.24882005 0.2625959 0.7723899 -0.0066303248 0.033546448 0.506347 -1.7374214 -0.1352646
-0.64443195 -0.19394481 0.13858852 -0.24334085 0.32133514 1.2750065 -0.73102534 0.16037726
-0.24198233 3.0796928 0.03898304 -0.092059664 1.0477294 -1.6427664 0.39133954 0.05828765
-1.3785926 0.85621375 -0.11771235 -1.8056053 -0.156876 -4.236224 -0.12574393 1.1186773
0.13988999 0.21183175 0.393608 -0.23073158 -0.30378634 0.43122125 0.058796067 0.09762191
-1.2321272 -0.085954845 0.40345708 -0.27133524 0.25058493 0.18882519 -2.976808 -0.053954452
0.17293298 -2.7722895 0.30311403 -0.14668174 0.3779536 0.15586405 0.07020794 0.363288
-0.2708988 0.33964786 0.061789513 0.074452266 0.10912909 -1.0141513 -0.31480142 0.47261825
-0.36092266 0.21718323 -0.012480925 -0.38273305 0.053361 0.24597237 -0.035679076 -0.011933713
-3.7821605 0.1139733 -0.0025535692 0.23539704 0.4050076 -4.8512473 0.66282624 -0.3095061
-0.10537633 -0.33255494 0.089236006 0.018943233 -4.195596 -0.07473487 0.32688373 -0.040499568
0.5728911 0.2433229 -0.26984748 0.517501 -0.019677192 -0.09132115 -0.16704968 -3.814298
-0.32257757 -0.076625675 -4.8211665 0.037324667 0.27815068 -4.4444385 0.5390658 0.29036352
2.0576394 0.30234343 -4.310386 0.19111413 -4.5831795 -0.42597926 1.1424489 0.3952089
0.32350594 0.22963396 -4.051973 -0.022443673 -0.27673104 0.66555154 0.21984552 0.29380542
0.12747893 -0.77408344 -0.32988635 0.6174117 -2.7821465 1.0790793 -0.24223241 -0.27942276
